wake_word_stop_lite.tflite (tflite, 70116 bytes, 9 tensors)

sequential_46/conv2d_93/Conv2D/ReadVariableOp f4 [1, 2, 2, 32]
000000 c0 9a 48 3e 26 3b 6b be c2 cb 4a 3e 61 a7 18 be
       0.19590282 -0.22971782 0.1980429 -0.149076
000010 1f 3c 8f 3e e8 a4 47 bd 81 c7 27 be 3f ed 54 bd
       0.27975556 -0.04874125 -0.16384698 -0.051984068
000020 c1 96 53 3d d1 94 d3 3b 62 c9 10 3e f7 12 47 3e
       0.051657442 0.0064569493 0.14139321 0.19440828
000030 17 da 0a 3e eb c9 8c bd 8d 1f 32 3d ed ca b3 bb
       0.13559757 -0.0687445 0.04348712 -0.005486837
000040 3f c6 11 bd 65 29 4f be 92 7f 20 be c0 f7 08 bd
       -0.035589453 -0.20230635 -0.15673664 -0.033439398
000050 72 39 62 3e 7d 01 90 bd 31 7f 4a 3e 03 fd 3d 3e
       0.22092226 -0.07031534 0.19775082 0.18553548
000060 e5 b0 ab bd f8 09 c3 bb 81 ed dd 3c aa 59 92 3d
       -0.08383349 -0.005952116 0.02709079 0.07146008
000070 28 bb 3c be fe 9f 99 3d 4c 3f a4 bc 08 0d 53 3e
       -0.1843077 0.07501219 -0.020049714 0.2061044
000080 71 4f aa 3d 22 55 1d 3e 53 63 21 3e 5b 65 c2 3c
       0.083159335 0.15364507 0.15760545 0.02372997
000090 67 3d 42 be 0e e8 52 be aa 24 4a be bc c7 5e bb
       -0.18968736 -0.20596334 -0.19740549 -0.0033993563
0000a0 54 e7 52 be 99 74 13 3e a5 86 3a 3e e5 44 c5 3d
       -0.20596057 0.14399947 0.18215425 0.09632281
0000b0 66 86 54 3e dc b4 91 3e 59 83 c7 bd 97 bb b0 bc
       0.20754394 0.28458297 -0.097418495 -0.021573825
0000c0 64 fe e9 3d bf 95 22 3e f8 6e 0c 3d c1 1e 1c 3d
       0.11425474 0.15877436 0.034285516 0.038115267
0000d0 02 37 13 3e f3 2c f1 bd 2e bc 17 3c e2 a2 76 3d
       0.14376453 -0.117761515 0.009261174 0.06021393
0000e0 7c 1f 67 bd f2 22 be bd 7b 2b 3d be 9b 6e ae 3d
       -0.05642651 -0.09284009 -0.18473618 0.0851719
0000f0 10 cd 1e be 2a 0e 19 be 98 64 ca 3c 80 b8 b9 3d
       -0.15507913 -0.1494681 0.02470617 0.09068394
000100 e3 92 ed 3d af 58 0b 3e db b4 27 be 1c 80 08 3d
       0.11600282 0.13608049 -0.16377585 0.0333253
000110 11 2a 97 be 74 16 3b bd 2a ce 63 3e 11 8b bc bd
       -0.29524282 -0.04567571 0.22246614 -0.09206212
000120 0f ca 79 be a7 00 40 3e a7 91 96 3c 2d 02 a7 3d
       -0.24393485 0.18750249 0.01838 0.08154712
000130 3f 2b b9 3d 4c 72 0d be 2e 38 50 3e b9 0f dc bd
       0.09041452 -0.13813132 0.20333931 -0.10745186
000140 1d 43 8c be 83 83 97 3d 09 1c 26 3e ab 0f 80 3e
       -0.27394953 0.07398131 0.16221632 0.25011954
000150 8a d7 7f be 0a 1d 84 be 45 38 82 3e 44 e6 52 bd
       -0.24984565 -0.25803405 0.25433555 -0.05148913
000160 b9 c3 cf 3c 1e c4 d0 bd 97 0d 4b 3e dc 08 01 3e
       0.025361883 -0.101936564 0.19829403 0.12601036
000170 6b 35 63 3d 29 ab cf 3d ec 12 93 3e 0f 7f 81 bd
       0.055470865 0.10140068 0.28725374 -0.06323063
000180 55 ca 3d 3e b1 48 f9 3d ab 3b e6 3d 27 d4 44 be
       0.18534215 0.12172068 0.112418495 -0.19221555
000190 14 1f 79 be fe 5e f0 bd 48 1d fc 3d 7b 95 83 be
       -0.24328262 -0.11736868 0.123102725 -0.25699982
0001a0 b3 8c 08 3e 53 dc 97 bd 3b 8c ad bb d5 e4 e7 bc
       0.13334922 -0.074150704 -0.005296258 -0.028307358
0001b0 43 00 8b be f0 20 ab bd ce 44 10 3d 32 ca bd bd
       -0.27148637 -0.08355892 0.035221867 -0.09267081
0001c0 74 2e cf 3c d7 33 99 bd e5 44 5b be 84 cb 96 be
       0.025290705 -0.07480591 -0.21413 -0.29452145
0001d0 33 6e 84 3e 6e b3 98 3d 9d 4e 5c 3d b6 4d 6d 3e
       0.25865325 0.074560985 0.05378591 0.23174176
0001e0 af 8a 41 bd 71 0d 49 3e 1b 26 61 3e 8f 3f 4a 3e
       -0.0472514 0.19634034 0.21987192 0.19750808
0001f0 56 9a ab 3d 3d d8 41 3e 6b f8 44 bd 49 40 bd bd
       0.083790466 0.18930145 -0.048088472 -0.09240777

sequential_46/conv2d_93/Conv2D_bias f4 [32]
000000 cd 91 cb 3c b8 72 32 3d 25 b5 ef bc be 1f f6 bd
       0.024849797 0.043566436 -0.029261181 -0.12017773
000010 94 6b 65 bd 9e 5c f1 bd dd a9 9c bc e0 43 aa bd
       -0.056010798 -0.117852435 -0.019123966 -0.083137274
000020 31 8c b0 bd a3 a4 72 bd 3d cd 51 bd 9a 6c 06 be
       -0.086204894 -0.05923904 -0.05122112 -0.13127366
000030 34 50 48 3e 06 aa 5b bd 90 e1 9f 3d e8 e3 fd bc
       0.19561845 -0.053628944 0.078066945 -0.030992463
000040 60 7c 95 bc 63 b5 1c bd 14 7c b6 bc 99 d1 11 3e
       -0.018247783 -0.03825892 -0.022275962 0.14240111
000050 dd 10 5e 3d e0 f1 15 be db 1f 36 3d a6 0e 9b 3c
       0.0542153 -0.14643049 0.044463973 0.018927883
000060 a2 0f 4b bd 6d 56 7d 3c 0c 78 bf bb 80 19 99 b8
       -0.049575455 0.0154625 -0.005843168 -7.300358e-05
000070 25 8d da 3b 69 b3 8f bd 78 01 74 3b 9c 25 8a bd
       0.006669658 -0.07016642 0.003723232 -0.06745455

sequential_46/conv2d_94/Conv2D/ReadVariableOp f4 [32, 2, 2, 32]
000000 27 e5 24 3c e5 f3 30 3e 25 df 43 be b9 48 9c 3d
       0.0100644 0.17280538 -0.19128092 0.07631058
000010 f4 c1 ca bd f2 87 80 3c 8e 56 99 3d 10 7e ee 3b
       -0.09900275 0.015689824 0.07487212 0.0072782114
000020 a1 b5 46 bd be 5e bf 3d 87 19 af 3c 57 cb 4b be
       -0.04851306 0.093442425 0.021374477 -0.19901787
000030 29 e7 77 3d 84 19 5e 3d b3 c9 47 be 7e e9 02 bb
       0.060523186 0.054223552 -0.19510536 -0.0019975598
000040 62 02 09 bd a4 3e 14 bd 34 70 d1 3d 5c d4 1b 3e
       -0.033449538 -0.03619255 0.10226479 0.15217727
000050 17 e6 02 be 7c 48 ba 3d 8c 86 ba 3d 52 e8 60 be
       -0.12783085 0.090958565 0.09107694 -0.21963623
000060 a9 81 22 3b c7 94 7d bd 49 3a f9 bd 2d 50 54 3d
       0.0024796522 -0.061909463 -0.1216932 0.051834274
000070 56 40 92 3d c4 e9 0e bd f4 c9 aa bd c4 13 4a be
       0.07141177 -0.034890905 -0.08339301 -0.19734102
000080 52 e9 0a 3e 00 da 42 bd 21 47 b0 3d 57 82 ad bd
       0.13565567 -0.047571182 0.08607317 -0.08472126
000090 01 4d b5 bd 1a ae cc bd 7c dd 12 be b7 b5 76 bd
       -0.08852578 -0.09994145 -0.14342302 -0.06023189
0000a0 ec 4d 46 be b5 b6 c4 3d 32 66 77 3d e1 70 87 bd
       -0.19365662 0.09605161 0.060400195 -0.06613327
0000b0 c3 79 33 3e 6a a9 60 bc e3 30 24 3d 61 3f 3c be
       0.17526917 -0.013712266 0.040085685 -0.18383552
0000c0 6e 82 f6 3d 14 40 82 3d 08 7e 81 bd 7e 9f 4c be
       0.12036596 0.06359878 -0.06322867 -0.19982716
0000d0 2a ac 1f 3e e8 b9 34 bd 84 4b 93 bd 0e 57 8c 3d
       0.15593019 -0.044122607 -0.07192138 0.06852542
0000e0 dc 3f a8 b6 56 dd ae 3d a2 d8 0c be 1b fb 12 3e
       -5.0142244e-06 0.0853831 -0.13754514 0.14353602
0000f0 10 94 d4 3d 40 4f 21 bd 04 e8 49 3e de 3e d8 bb
       0.10379803 -0.03938222 0.19717413 -0.006599291
000100 95 aa 03 3d 01 cc 88 3b df 28 21 bd 6a fb 09 3d
       0.0321451 0.00417471 -0.03934562 0.033687033
000110 7c b1 38 3e a9 b2 96 bd 62 d7 32 3e 86 73 c5 3c
       0.18036455 -0.073582955 0.17464975 0.024102937
000120 2b 7c 4c bd b2 16 6e be db 18 68 bc 49 85 9f 3c
       -0.049923103 -0.23250845 -0.014166082 0.019472735
000130 e4 9b 05 3d 21 1c 09 3e c0 fe 00 be cf a4 41 3e
       0.032619372 0.13389637 -0.1259718 0.18910526
000140 d0 ca 83 3d 7b 28 1c be b4 90 4b be 42 13 26 be
       0.06435168 -0.15249817 -0.19879419 -0.16218284
000150 f6 1e fb 3d e9 5e c7 3d 6b 37 28 be 5a 62 45 be
       0.12261765 0.097348996 -0.1642739 -0.192758
000160 b2 5a c7 3d b5 e8 8e bd 08 70 b9 bd 5c ef 06 3d
       0.09734096 -0.06977979 -0.090545714 0.032943115
000170 39 55 1e 3e 5c 34 2a 3c 65 54 bd bd 6d 91 9d 3b
       0.15462197 0.01038846 -0.092446126 0.004808596
000180 c9 eb e4 3d 1a 37 2a 3d bb 29 96 3c c6 93 ae 3d
       0.11177785 0.041556455 0.018330446 0.08524279
000190 58 de dd bc 1d 50 ff 3d 1b e6 0a 3e 3e 3e cc bd
       -0.02708356 0.12466452 0.13564341 -0.09972809
0001a0 93 85 02 3e 23 da f8 b9 de 73 b3 3c 94 4c f3 3d
       0.12746267 -0.0004746477 0.021905836 0.118798405
0001b0 07 45 b5 3d 29 d4 66 be 06 bc 2f 3d 3d fe 18 3e
       0.088510565 -0.2254187 0.042903922 0.14940734
0001c0 43 86 b3 bd c4 48 1d be 26 38 11 bb 9b fc 99 be
       -0.08765843 -0.15359789 -0.0022158711 -0.30075535
0001d0 43 18 15 be 32 48 29 3e 7c 09 ff bd 11 73 8a 3c
       -0.14560036 0.16531447 -0.12452981 0.016900571
0001e0 2d 4f 4d bc 09 2b 4b 3d bb e3 19 3e b9 68 e3 3d
       -0.012531084 0.04960159 0.15028279 0.11103959
0001f0 48 6c 2f 3e 94 0a 0a 3e 54 dc ea bc ad 33 9c bd
       0.1713115 0.13480598 -0.028669514 -0.07627044
000200 e1 9b 56 3e 93 13 8e 3d a5 ae 8f bd d2 5a 0e 3d
       0.209579 0.06937327 -0.07015733 0.03475458
000210 bf 6c 2e bd 5c 8d fd 3b 72 eb 04 3e 1b 4e 79 bd
       -0.042584177 0.0077377986 0.1298044 -0.060865503
000220 5f 2c 67 bd 2d 27 d5 bd f4 70 00 3e fb 3f 1e 3e
       -0.0564388 -0.10407863 0.12543088 0.15454094
000230 77 c8 3c bc 5d 19 a9 bd 53 74 df 3d b2 f4 42 be
       -0.011522404 -0.08256791 0.10910859 -0.19038656
000240 0b c7 6d 3d 00 58 2b 3d 67 4d 06 3e 41 0d 67 be
       0.05805115 0.04183197 0.13115464 -0.2256365
000250 fd f5 c6 bd ad 9e cf bd a6 b8 10 3c ee 30 10 3e
       -0.09714887 -0.10137687 0.008833086 0.14081165
000260 79 3c 84 bd fe 27 da bd af 45 28 3e 5f ec 13 3e
       -0.06456847 -0.10652159 0.16432832 0.14445637
000270 98 56 63 bd e7 e3 33 3e c0 70 38 bc 30 ef e4 3d
       -0.055502504 0.17567407 -0.01125735 0.11178434
000280 40 3f f2 bd d9 77 11 bc 18 7f c6 bd a6 b6 e6 bb
       -0.1182847 -0.008878672 -0.0969221 -0.0070408164
000290 ba 44 c0 3a 67 b5 00 be 9b c0 e1 bc fb be 20 be
       0.001466892 -0.125692 -0.027557662 -0.15697853
0002a0 e2 ed 8f bd be 50 3c be 3a 2e b0 3b 9f b2 1b be
       -0.070277944 -0.18390176 0.0053766044 -0.15204857
0002b0 39 89 07 3d 74 3a 30 be a8 54 47 be f3 1b c6 3b
       0.03308985 -0.17209798 -0.19465888 0.0060458123
0002c0 df b2 9c bd 1d 67 37 3e 8a 88 81 bd 31 98 8d 3d
       -0.076513045 0.17910428 -0.06324871 0.06913794
0002d0 a3 f5 cf bc 47 3f 85 bd 62 33 fc 3d 0e d1 f5 3c
       -0.025385683 -0.0650621 0.12314488 0.030006912
0002e0 57 3d 15 be c9 05 b1 bc b4 e8 ab 3d d9 77 c2 bd
       -0.1457418 -0.021609204 0.08393994 -0.094955154
0002f0 60 6f 05 be 82 b3 09 bb 26 16 d0 3d ba b9 d5 bd
       -0.13030767 -0.0021011536 0.101604745 -0.10435815
000300 ff 38 88 3d 08 81 b8 bd 8d 98 6f 3c b7 73 9b bd
       0.06651496 -0.09008986 0.014623773 -0.0759043
000310 12 15 94 3c 42 78 a6 3d 53 eb 17 3e fa ec c0 3a
       0.018076453 0.08128406 0.14835863 0.0014719062
000320 c7 25 8b 3d 6a 46 87 3d 8e e6 ca bc 99 57 48 bd
       0.06794315 0.06605227 -0.02476814 -0.048911665
000330 78 bb c3 bd 80 f3 62 3d 44 53 ca 3d 32 b2 55 bd
       -0.09557241 0.055408 0.09879163 -0.052171893
000340 64 27 05 3e c3 05 84 3e 36 b2 ad bd 69 f2 6c 3d
       0.13003308 0.25785646 -0.08481257 0.057848368
000350 cf 22 fb bd 0c 2e bf bd 07 7a f7 bd 71 52 fa bc
       -0.122624986 -0.093349546 -0.12083822 -0.03055689
000360 0f 8d 1d 3e 68 eb 6e 3e 97 ae 12 3e 0b 02 20 be
       0.15385841 0.23331988 0.14324413 -0.1562578
000370 6f 1d 61 3e 4b 58 ad 3d 37 86 24 be bc 52 0d 3c
       0.21983884 0.08464106 -0.16066824 0.008625682
000380 24 12 e3 3c b8 6f 80 3e e3 3c 1a be a1 97 0c 3c
       0.027718611 0.25085235 -0.15062289 0.008581073
000390 bf a6 d7 3d 04 64 37 3d 2d 6f 9a 3d 07 24 8c 3d
       0.10529851 0.044773117 0.07540736 0.06842809
0003a0 38 23 fc 3d d2 52 bf bd a8 b0 45 be 9c 76 c4 3c
       0.12311405 -0.093419686 -0.1930567 0.023982339
0003b0 e2 cc eb bc dd 8c d5 3d 1f 7c 3b be 4d f8 de bd
       -0.02878422 0.10427258 -0.18309067 -0.10887203
0003c0 65 a9 39 3e fb 28 13 3e 41 da 37 be ae 3c 16 bd
       0.18131025 0.14371102 -0.17954351 -0.036678962
0003d0 1a 8b 91 bd 18 ca 8b 3d 17 b3 00 bd 4f 8a 54 bc
       -0.0710661 0.06825656 -0.031420793 -0.012972428
0003e0 a5 ac 1e bd 91 cc a4 bd d4 90 bf 3d 9d 40 38 3d
       -0.038738865 -0.080468304 0.09353796 0.044983495
0003f0 77 55 51 3d 67 d2 12 3d 8f 0e ca 3d f7 86 c7 3d
       0.051106896 0.035845187 0.09866058 0.097425394

sequential_46/conv2d_94/Conv2D_bias f4 [32]
000000 ef 8d d8 bd 03 8f 50 bd f3 11 85 bd 61 2a 35 bd
       -0.10573947 -0.050917637 -0.06497564 -0.04422987
000010 35 7d c0 bc ff 0c a4 bd ce 3c a7 bb b6 92 9e 3d
       -0.023497203 -0.08010291 -0.005103684 0.07742827
000020 81 40 ec bd b9 2b 9d bc 24 d3 cd bd 93 28 fb bd
       -0.11535741 -0.019185888 -0.100500375 -0.12263598
000030 8d 71 e3 bd e4 3f ef 3c ff 09 81 bc 6d 11 74 bd
       -0.111056425 0.02920527 -0.015751837 -0.05958693
000040 0a ec 46 bd a1 54 3d be 39 1f c1 bc c9 88 c2 bd
       -0.04856495 -0.18489315 -0.023574458 -0.09498746
000050 ab 9f 6f 3c b2 98 6c 3d de 23 85 bb f4 80 9c bc
       0.01462547 0.05776281 -0.0040631136 -0.019104458
000060 a2 22 d2 ba 05 25 09 bd 01 07 41 3c 11 21 14 3d
       -0.001603205 -0.03348257 0.011781455 0.036164347
000070 eb 06 82 bd 01 36 0e bc 98 b4 a1 3a a4 6b b8 bd
       -0.06348976 -0.008679868 0.0012337146 -0.09004906

sequential_46/conv2d_95/Conv2D/ReadVariableOp f4 [64, 2, 2, 32]
000000 3d ce bb 3c f1 6d 27 be 40 21 2a bd 78 a9 dc bd
       0.02292549 -0.16350533 -0.041535616 -0.10774511
000010 1e 37 e1 3d cc 34 af bd 9f 18 a2 bc 0b 1f 16 3d
       0.10996841 -0.08554992 -0.01978713 0.0366507
000020 43 1c 78 be 7a 4d a2 bc a1 5f a2 3d 70 df 84 bd
       -0.24229531 -0.019812334 0.07928396 -0.0648793
000030 b0 78 c8 3d 92 59 69 bd 8f 75 1e be a5 da 33 3d
       0.09788644 -0.056970187 -0.15474533 0.043909688
000040 5d f8 de bd d8 1e 2d bd b8 da 45 be 28 83 87 bd
       -0.10887215 -0.042265743 -0.19321716 -0.06616813
000050 f0 66 a8 bc f4 d1 c2 bc 3e f9 c5 3c 91 2b bd bc
       -0.020556897 -0.023781754 0.0241667 -0.023092063
000060 d2 5d 03 be b8 2b 58 3e 7b b7 e8 bb 77 c6 f1 3b
       -0.12828758 0.21110427 -0.0071019507 0.007378395
000070 6d 2e fa 3c d3 c7 b0 3d a0 3d 5f bd 8d ad 16 bd
       0.030539716 0.086318634 -0.05450213 -0.036786605
000080 36 29 ff bb 88 92 44 3e 9f cd 65 bd 02 a1 56 3e
       -0.007786895 0.19196522 -0.0561043 0.20959857
000090 b8 47 28 be c0 57 f7 3c c5 af cb bd da 16 76 3d
       -0.16433609 0.03019321 -0.09945635 0.060080387
0000a0 af be f2 3d b0 f3 b4 3d 73 71 94 bd ce f6 08 3e
       0.11852776 0.08835542 -0.07248201 0.13375399
0000b0 6f 7c 7c 3d 0c 01 4d bd 7d 7e f9 3d d9 cc e0 bc
       0.061642107 -0.050049827 0.12182329 -0.027441429
0000c0 23 39 41 3d a6 d7 2e 3e ff 8b d3 bd 1e de af 3d
       0.04717363 0.17074451 -0.103294365 0.08587287
0000d0 f1 a6 d2 3c 42 d4 4a 3d 0d 6b 8e bd a4 e3 81 bc
       0.02571437 0.04951883 -0.06954012 -0.015855618
0000e0 2e b1 30 3d 4a 48 50 3e 89 44 d4 bb 12 d3 26 3d
       0.04313772 0.20340076 -0.0064778966 0.040728636
0000f0 7c a0 87 bd a8 b8 03 bd ea 2e d6 3c 83 74 8d 3d
       -0.06622407 -0.032158524 0.026145417 0.069069885
000100 5e 80 6b 3d eb db 22 3c e9 d4 b8 bd 3d 9c 64 bd
       0.057495467 0.009940128 -0.090249844 -0.055813063
000110 25 fe 60 3d 10 f5 68 3d 20 53 25 3e 63 1d 5d be
       0.05492987 0.056874335 0.16144991 -0.21593241
000120 0b 1b 05 bd c4 69 a8 3d 18 94 b2 3d 8c d8 ee 3b
       -0.032496493 0.08223298 0.08719653 0.007288998
000130 87 73 55 3e 23 d6 40 3c ab da 8b bc b9 f4 a3 3d
       0.20844851 0.011769804 -0.017072042 0.080056615
000140 80 5d d0 ba 86 5b 85 bd 71 5f 68 bc ae ac 90 bd
       -0.0015897006 -0.06511597 -0.014182911 -0.07064186
000150 d3 4f 23 3e c9 56 fe 3d 57 67 02 3d 73 a5 1d 3e
       0.1594842 0.12418897 0.031836834 0.15395145
000160 a4 f5 12 bd 26 a3 8c 3d 87 cc 18 3e e2 b7 25 3e
       -0.035878792 0.068670556 0.14921771 0.16183427
000170 19 e2 cc 3d ba 45 79 be 06 e4 10 be ff 67 9c bd
       0.10004062 -0.24343005 -0.14149484 -0.07637023
000180 b6 98 8c 3b 0c 89 a4 bb fa 20 c1 3d 54 e5 66 3d
       0.0042906655 -0.00502122 0.09430118 0.056371048
000190 46 a8 ba bd a5 c4 02 be d9 4a 8d bd dd a2 87 3d
       -0.09114127 -0.12770326 -0.06899042 0.066228606
0001a0 46 31 6f bd d4 e5 10 3e df a0 0a bd 1e c5 23 3d
       -0.0583966 0.14150172 -0.033844825 0.039982907
0001b0 eb 1a 09 3e 3f cf d0 3d 4b 05 3e be f9 88 69 bd
       0.13389175 0.10195779 -0.18556707 -0.057015393
0001c0 7e 12 55 be 2f ee 71 bb e9 c9 c3 bd db 50 a7 bd
       -0.20807835 -0.003691565 -0.09559996 -0.08169719
0001d0 84 d5 47 bd a4 b2 d6 3d ea a0 71 3e 26 6e 20 3e
       -0.04878761 0.10483292 0.2359654 0.15667018
0001e0 82 32 7f 3d b5 ad e3 bd 79 d3 7f bd 45 70 0b 3d
       0.062304027 -0.11117116 -0.062457535 0.034042615
0001f0 98 73 72 3e 02 2e 03 3c d4 72 cf 3c b4 78 88 3d
       0.23676908 0.008006575 0.025323309 0.06663647
000200 19 6e c1 bd d3 dd 0c be 03 7c a8 bd 92 90 90 3d
       -0.094448276 -0.13756494 -0.08226778 0.070588246
000210 ae 2f 9a bd 37 42 8f bd b3 c3 3a 3d f5 e9 ed bb
       -0.075286254 -0.06995051 0.04559679 -0.007260556
000220 16 b4 50 3c 52 f0 d1 bd 28 ac fc bd 73 2b e9 bd
       0.012738248 -0.102509156 -0.12337524 -0.113852404
000230 8a ed 9d bc ee b4 37 be 95 c3 c8 bd 0f 7e 10 3d
       -0.019278307 -0.17940113 -0.09802929 0.03527647
000240 8c f1 15 bd e7 51 8f bd 8a b1 14 be 3c dd 0c 3e
       -0.03660731 -0.069980435 -0.14520851 0.13756269
000250 4c 1c a3 3c f1 44 25 be 51 c4 e5 3c 25 54 2f 3d
       0.019910954 -0.1613958 0.028047713 0.042804856
000260 8e 73 18 3e bd d9 71 3d fe 40 cf bd 44 8b 35 be
       0.1488783 0.059045542 -0.10119818 -0.17728907
000270 50 8e 27 3d eb 16 b9 bd 92 5f a3 bd a4 c4 2e bb
       0.040907204 -0.090375744 -0.07977213 -0.00266675
000280 a2 6d 6d 3c 90 74 5e bd 8f 7d 0a be 44 67 1a bd
       0.0144914705 -0.05431038 -0.1352446 -0.037696138
000290 e3 46 f4 bd 4a 57 c2 3b 5d d0 10 3c b0 2a 37 3d
       -0.11927583 0.005930816 0.00883874 0.044718444
0002a0 9d 14 61 3d 1b 72 89 bc 9c 82 80 3d f8 c0 22 be
       0.0549513 -0.016778043 0.06274912 -0.15893924
0002b0 22 f6 80 bd ea 6a 83 3d b4 70 0e 3d 33 9f fd bd
       -0.06296946 0.064168766 0.03477545 -0.123838805
0002c0 b7 37 be 3d 68 33 a9 3d d8 e6 03 3c f2 a1 35 3d
       0.092879705 0.08261758 0.008050643 0.044343896
0002d0 fd 2a d0 bd be 3f 5c bd 77 0b 17 be 86 aa b0 3d
       -0.10164449 -0.053771727 -0.14750467 0.08626275
0002e0 94 a6 13 3e dd fc fc ba f2 b8 0e be 85 ea 0d be
       0.14419013 -0.0019301433 -0.13937739 -0.13858993
0002f0 41 90 b7 bd ad bb b3 bd 2d fb 9d 3d c1 cb 48 3c
       -0.08963061 -0.08776031 0.077139236 0.01225561
000300 d3 38 8e 3d 77 b4 0b bd 53 03 fa bd 86 0d 19 be
       0.06944432 -0.03410765 -0.12207665 -0.14946565
000310 61 31 df 3d e3 75 3f 3d be 74 1c 3d 5f b5 82 3d
       0.1089809 0.046743285 0.03819727 0.0638225
000320 f7 d1 2e 3c ed 41 5b 3d a2 74 1b be e3 80 68 bc
       0.010670177 0.05352967 -0.1518121 -0.014190885
000330 a1 1f 32 be e7 51 e9 bd 3a 43 ff bd e8 8f aa bd
       -0.17394878 -0.11392575 -0.12463994 -0.08328229
000340 6e 7a d9 3d dc 2f 82 3d e2 87 b5 3c b1 09 52 b8
       0.10619055 0.06356785 0.02215952 -5.0076927e-05
000350 3e 5e b9 bb 5a 00 41 be 4a 7e af bd 13 c8 03 3b
       -0.0056569865 -0.1884779 -0.085690096 0.0020108267
000360 f5 45 1c be 3e 59 0b 3c 46 aa 13 be 94 00 d5 bd
       -0.15261061 0.008505164 -0.14420423 -0.10400501
000370 50 78 0f bd 93 c9 41 bb 4d 09 9c bd 64 0b 22 bd
       -0.03502685 -0.002956961 -0.076189615 -0.039561644
000380 04 58 d2 bd ec ed e7 3c da 44 92 bd 24 30 0d be
       -0.10270694 0.028311692 -0.07142039 -0.13787895
000390 86 12 bb bd c1 31 93 3c a8 b1 9b 3d 0a 44 85 3d
       -0.091343924 0.01796806 0.076022446 0.06507118
0003a0 5b cc b2 3d a7 b9 da bd 1c 07 6d bb 8c f6 0e be
       0.08730384 -0.106799416 -0.0036167568 -0.13961238
0003b0 17 48 a4 3d 80 fd 6b 3c 52 dc e9 bc ef c1 75 bd
       0.080215625 0.014403701 -0.02854744 -0.059999403
0003c0 a0 fa b9 bd af 12 c5 3c 71 51 d7 3d 97 a2 0d bd
       -0.09081006 0.02405676 0.105135806 -0.034578886
0003d0 c9 c6 2c 3d 4e 3b 54 3b d9 66 c2 3d 13 04 22 be
       0.042181764 0.003238398 0.09492273 -0.15821867
0003e0 83 83 11 3d 13 be 0c bd 35 3a 0a 3e a5 86 8b bd
       0.03552581 -0.034360956 0.13498767 -0.06812791
0003f0 a4 79 b6 3d 2f 12 c3 bd d5 a5 4f bd 34 eb ff bd
       0.0890992 -0.095249526 -0.05069526 -0.12496033

sequential_46/conv2d_95/Conv2D_bias f4 [64]
000000 06 d8 11 bd 86 b1 ad ba ab f9 10 bd 1d 49 14 bd
       -0.035606407 -0.0013251759 -0.035394352 -0.03620254
000010 88 3c a6 bd 20 ee 65 3b 6e 97 71 39 e2 fd c2 bc
       -0.08117014 0.003508456 0.00023039963 -0.023802701
000020 76 42 25 bc a9 e6 18 bc 27 ca 0a bd e3 78 33 3c
       -0.010086646 -0.009332337 -0.033884194 0.010954115
000030 90 3f 3b bd 6e e1 42 bd 02 d3 80 bd 22 52 99 3c
       -0.045714915 -0.047578268 -0.062902465 0.018715922
000040 44 ff 0e bd 1f cd 76 bd a7 a7 14 bd 10 c4 2e bd
       -0.03491141 -0.060254212 -0.0362927 -0.04266745
000050 0a db 18 bd f3 eb f6 bc 5f d7 95 bc 51 ed 43 bc
       -0.037318267 -0.030141806 -0.018291174 -0.011958436
000060 4b 05 ac 3c e0 73 be bc 26 02 e7 3c e1 5a 47 bc
       0.020998618 -0.023248613 0.028199267 -0.012167663
000070 b4 bf b5 bd e2 6c f3 3a dc aa f4 3c ea 5b 08 bc
       -0.08874455 0.0018571878 0.029866628 -0.008322695
000080 41 f5 02 bd 14 cf 35 bd a2 3d 4a 3c 84 cf bf bc
       -0.031972174 -0.04438694 0.012343796 -0.02341438
000090 56 5d 23 bd 08 6a 85 bd d7 67 ef bc f3 0e a0 bd
       -0.039883934 -0.065143645 -0.02922432 -0.07815351
0000a0 08 8d 7b bb be cf 14 bd 25 80 c0 bc 67 a2 e4 bc
       -0.0038383622 -0.03633093 -0.023498604 -0.02790947
0000b0 48 92 97 bc 2d bf 70 bd 71 2d 70 bd a1 58 61 bd
       -0.01850237 -0.05877607 -0.058637086 -0.055016164
0000c0 fe cf 23 bd e8 9f e6 3c 88 af 88 3b 34 e8 26 bd
       -0.03999328 0.028152421 0.0041713156 -0.04074879
0000d0 b8 d8 b9 3c 80 61 8d bd 99 38 f7 bc 39 12 50 bd
       0.022686347 -0.06903362 -0.030178355 -0.05079863
0000e0 4d e9 55 3d 63 75 39 3b c0 85 1b bd 87 bc 25 bd
       0.052224446 0.0028298728 -0.03796935 -0.040462997
0000f0 51 d4 b7 bc d5 f7 ee bc b4 9b 55 bd 51 bf bb bc
       -0.022440108 -0.02917091 -0.052150443 -0.022918375

sequential_46/dense_86/MatMul/ReadVariableOp/transpose f4 [64, 64]
000000 00 df a5 bc 46 76 5b 3e 02 b7 34 3e 2d bb 07 bd
       -0.020247936 0.21431836 0.17647937 -0.03313749
000010 b4 0e df 3c ad 0b 3a 3d 51 3a 70 bd 3e c4 6e 3d
       0.02722869 0.04542129 -0.058649365 0.05829262
000020 67 ed bd 3d b7 f9 a1 3e 67 8d 10 3e 17 fd 35 3e
       0.092737965 0.3163583 0.1411644 0.17772327
000030 82 c1 0f 3e 86 e8 83 3e eb 7f 5c 3e d2 69 81 3e
       0.14038661 0.2576334 0.21533172 0.25276047
000040 0c ce c7 3c 85 b1 0e 3d 6b 41 1e be ad e8 35 be
       0.024390243 0.034837265 -0.15454642 -0.1776454
000050 11 0c 6a 3e 91 91 3a be f8 df 59 3e c4 b9 f9 3d
       0.22856165 -0.18219592 0.21276844 0.12193635
000060 e2 d4 87 be 68 51 7c 3d d5 e2 df bd 1b 7f 59 3e
       -0.26529604 0.061601073 -0.10931937 0.21239893
000070 e0 a5 8b 3e cf 3a 80 3e 9a a7 72 bd 63 8d 30 3d
       0.2727499 0.25044867 -0.05924187 0.043103587
000080 16 85 13 3e aa 19 48 3e 96 a5 c2 bd 0a d1 cf 3d
       0.14406237 0.1954104 -0.09504239 0.10147293
000090 2b 33 28 3e cf 1e 03 be 73 98 58 3e cf c5 8b 3e
       0.16425769 -0.12804721 0.21151905 0.27299353
0000a0 ce fa 5f 3e cf 47 f5 bd c9 06 b3 bc 02 1e 3a bd
       0.21873018 -0.11976587 -0.021853821 -0.045438774
0000b0 da 64 e4 3d 5b d9 e7 3d f4 d3 49 3e 7b 8b 50 3e
       0.111520484 0.11320754 0.1970976 0.20365708
0000c0 17 9b 04 bd 09 1f f4 bd 46 cc 64 bd 92 5b c6 3d
       -0.032374468 -0.11919982 -0.055858873 0.096854344
0000d0 5c 7b 7a 3e 29 6a f2 bc 77 f5 80 bd 24 db 3d 3e
       0.2446112 -0.029591637 -0.06296819 0.18540627
0000e0 7d 65 0f bd 46 ba a8 3d f5 44 4a 3e 05 12 61 3e
       -0.035008896 0.08238654 0.19752868 0.2197953
0000f0 11 98 8e bc 8e ea 29 bd 53 4a be 3d 8a 68 25 bd
       -0.017406495 -0.041483454 0.0929152 -0.0403829
000100 8f f3 2b 3c f2 e0 9b 3c 1b 28 ec 3d 75 2a 31 3d
       0.010495081 0.01902816 0.11531087 0.04325338
000110 9a b4 33 3e af ad 06 3e f5 01 b1 3d c2 dd 74 be
       0.17549363 0.13152193 0.086429514 -0.23912719
000120 bc 60 af 3c 12 23 df 3c 4b d3 e2 3d fc e6 12 be
       0.021408431 0.027238403 0.11075457 -0.14345926
000130 11 84 24 3e 5d 60 80 3c 6f e5 d3 3d 73 5b 89 3c
       0.16066004 0.01567095 0.10346495 0.01676724
000140 b6 2e 3e be 67 5c 02 3e 90 3a 12 3e b4 06 5c 3d
       -0.18572506 0.12730561 0.14280152 0.05371733
000150 06 e5 19 3e 81 18 3b 3e 2a 56 32 3d c2 30 2c bc
       0.15028772 0.18271066 0.043539204 -0.010509672
000160 d0 a8 2c 3e f8 ed 08 be a8 6d ce bd 88 2b 01 3e
       0.16861272 -0.13372028 -0.10079509 0.12614262
000170 2d e3 21 bd ea ea 62 be f7 9d 1a be 8e c1 36 3e
       -0.039523292 -0.22159925 -0.15099321 0.17847273
000180 03 a1 b5 3d fa 77 b7 bd de c6 5a be f7 97 cb 3c
       0.08868601 -0.089584306 -0.21364924 0.024852736
000190 a6 17 4b 3e 5b ed 88 bd 11 0b e1 bd 35 76 ac 3c
       0.1983324 -0.06685897 -0.10988439 0.02105246
0001a0 38 18 1e 3c 05 3c 2a be 33 c7 38 be 94 64 0e 3d
       0.009649329 -0.16624458 -0.18044738 0.034763888
0001b0 dd c9 0c 3e 2f f5 79 be 6f b3 b4 bd ac cb 88 be
       0.1374888 -0.24409936 -0.08823287 -0.2671789
0001c0 00 5a a2 bd 4b 86 4f bd d9 25 50 be 88 cb de 3d
       -0.079273224 -0.05066518 -0.20326938 0.10878664
0001d0 47 34 32 be 23 d8 5a be 9c c6 8b bc f5 4b 90 3b
       -0.17402755 -0.21371512 -0.017062478 0.004403586
0001e0 a1 6f 41 be 9e 56 41 3d 9d c3 e8 bd 4b 15 34 be
       -0.1889024 0.047201745 -0.11365435 -0.17586248
0001f0 a7 81 49 be 51 ee 1a 3e f0 ef 81 3d ef f6 29 bd
       -0.19678365 0.15129973 0.063445926 -0.04149526
000200 6c be 01 be 6a 74 27 3e c9 a8 95 3d 2e 72 14 bd
       -0.12670296 0.16353002 0.07307584 -0.036241703
000210 b2 25 1f be f0 f5 2d be 53 83 48 3e 50 74 00 3e
       -0.15541723 -0.16988349 0.19581346 0.1254437
000220 75 29 0a 3e 93 0f 9b be f1 f7 65 bd c7 b6 67 3d
       0.13492377 -0.3028532 -0.05614466 0.056570794
000230 67 ac 2c be 07 ca ab 3c f6 d7 06 be ca bc 59 be
       -0.16862641 0.020970358 -0.1316832 -0.21263424
000240 ba 80 c4 bd 81 fa ab 3b b6 a9 86 be bd 10 5b be
       -0.09594865 0.0052483683 -0.26301354 -0.21393104
000250 4f 3e 9f be a2 5c ab 3d 2b 7f 63 be 24 6b a8 bd
       -0.31102225 0.08367278 -0.2221648 -0.082235605
000260 3e 95 18 3e 5c 89 14 3d 64 92 91 3e c5 7c 90 3d
       0.14900681 0.03626381 0.28432 0.07055048
000270 62 40 3c 3d dd 13 9c be 9d 56 3b be c9 15 03 3e
       0.045959838 -0.30483904 -0.18294759 0.12801279
000280 8b e5 3f 3d 94 6a 31 be 56 2a 8c 3c e9 20 38 be
       0.04684977 -0.17325813 0.017110031 -0.17981304
000290 5a 7d 56 bd 49 b4 5a be 63 9f 14 bd 32 18 59 be
       -0.05236564 -0.21357836 -0.036284816 -0.21200636
0002a0 52 66 b8 bd d1 aa 84 bd fb cd b0 3c 25 f1 2b 3e
       -0.09003891 -0.06477893 0.021582594 0.16791208
0002b0 ed 6b 92 3c 2a 33 0c 3a 11 74 06 bd 60 3a b6 bd
       0.017873729 0.00053482 -0.032825533 -0.08897853
0002c0 9e d6 02 be d0 f2 8d 3d ef 5b 52 3e ee 7a 04 3d
       -0.12777182 0.069310784 0.20542882 0.032343797
0002d0 10 d7 3f be a6 56 67 be 57 08 6c be d5 ca 26 3d
       -0.18734384 -0.22591648 -0.23050056 0.04072078
0002e0 01 16 2f 3d 9f b0 ad be 83 20 48 be c2 80 34 3d
       0.042745594 -0.33923814 -0.19543652 0.044068106
0002f0 1c d1 98 be ff f5 68 be 4f 7b 78 be 37 27 8d be
       -0.29847038 -0.2275009 -0.24265788 -0.2756898
000300 d4 34 de 3d a9 e8 1c 3e 8d fd b5 3d f8 6a 59 3e
       0.1084992 0.15323128 0.088862516 0.21232212
000310 d2 9a 8f 3e ce ca 06 3e a7 c3 ad bc 23 7e aa 3c
       0.28047806 0.13163301 -0.021211458 0.0208121
000320 e1 5d 04 be c0 43 0c 3e c0 e1 9d 3d 43 5d 85 3e
       -0.12926437 0.1369772 0.07709074 0.26047716
000330 07 26 89 3e 18 7f 29 3e 40 d7 7b 3e 35 89 66 3c
       0.26786825 0.16552389 0.2459383 0.014070799
000340 5a 82 0b 3e ae 83 fa 3d 05 f4 8b 3d 31 9e ab bb
       0.13623944 0.12232147 0.068336524 -0.0052373637
000350 5c 1d bf 3c 26 b2 6a bd aa cb 2d 3e f2 42 21 3e
       0.02332943 -0.0572988 0.16972223 0.15748194
000360 06 45 07 be 72 33 a2 3d 12 79 63 39 30 f6 79 3e
       -0.13209924 0.07919969 0.00021693509 0.2441032
000370 0d 02 5b 3e f7 4c a0 3e ce 0c 68 be a1 79 f3 3c
       0.21387501 0.3130872 -0.22661135 0.029721083
000380 f0 e5 4b 3c ed 78 ae 3a 9e 9d 69 bd 8e 75 c3 bb
       0.012444958 0.0013311185 -0.05703508 -0.0059649413
000390 f2 1a a9 3c 25 75 c7 bd 9f 75 87 3e 40 48 93 3e
       0.020642731 -0.097391404 0.26456925 0.2876606
0003a0 8c 0f 5b 3e cb 57 47 3e 5a 74 1c 3d a2 e9 14 3e
       0.2139265 0.19467084 0.0381969 0.14542249
0003b0 42 f4 e8 bd 75 3b 5d 3e 84 d9 9a 3e 1e e6 bf bd
       -0.113747135 0.21604712 0.30244076 -0.09370063
0003c0 25 9c 91 bd 7b ba 8a be 5e 90 98 be 1c 74 e4 3d
       -0.0710986 -0.27095398 -0.29797643 0.111549586
0003d0 ad 7b 5e 3e 1c d3 07 3e 59 53 84 3e 8c b7 ef 3d
       0.21726866 0.13264126 0.2584484 0.11704931
0003e0 c7 22 55 3e e7 2a 22 3c 2c 93 9f 3d 32 13 45 3e
       0.20814048 0.009897924 0.07791743 0.19245604
0003f0 6d a3 2b 3e 31 2b 43 3e 31 d0 6b 3e 65 96 ef 3d
       0.1676156 0.19059445 0.23028637 0.11698607

sequential_46/dense_86/MatMul_bias f4 [64]
000000 e9 8b e5 bb 53 53 29 bd 87 37 1a bc 22 5e f5 bc
       -0.007005204 -0.04133923 -0.009412653 -0.029952113
000010 df 82 34 bd b0 0c e9 3c 65 82 62 bd 9c 32 96 3c
       -0.04407012 0.028448433 -0.055300135 0.01833468
000020 4e a4 a8 bc 9e a6 64 bd ae 74 2d bd 16 7a 33 3c
       -0.02058616 -0.05582296 -0.042347603 0.0109544005
000030 82 c9 b9 3b ce b1 51 bd 36 3a 60 bc e3 37 03 bd
       0.0056697736 -0.05119496 -0.013685754 -0.03203572
000040 50 ec 44 3d de d2 7e bd 15 a3 0c 3c a0 38 ae bd
       0.048076928 -0.062212817 0.008583804 -0.08506894
000050 95 04 a4 3c 15 80 8b bc ed 30 fc bb 62 e1 37 bd
       0.020021716 -0.017028848 -0.007696262 -0.044892676
000060 6b ad 21 3c ed 86 07 bd 81 50 01 3d df 0d df bc
       0.009868006 -0.03308766 0.031570915 -0.027228294
000070 10 fd 82 bc e3 a0 04 3d fb 1e 0e 3d 35 02 20 bd
       -0.01598981 0.032379996 0.034697514 -0.039064605
000080 a6 6a 8c bc 35 cf 48 bd c7 10 9f bb 00 5c 30 b7
       -0.017140698 -0.049025733 -0.004854295 -1.0511838e-05
000090 3b 8f 18 3c 07 18 86 bd 6e ed aa bd ec 5c 83 bc
       0.009311493 -0.065475516 -0.08346067 -0.01603552
0000a0 58 0c 1c 3d 23 9d 82 bd 5b 17 8e bd 6a e5 5f bb
       0.03809771 -0.06377628 -0.069380485 -0.003416384
0000b0 67 63 11 3c 90 a2 f1 bb c9 75 75 3c c8 82 d2 3c
       0.008873797 -0.0073741153 0.014981695 0.025697127
0000c0 b4 dd 16 bd 3d 4e 18 bd bd 6c 21 3c 64 6b 37 bd
       -0.036832526 -0.03718399 0.009852585 -0.04478015
0000d0 c0 2e 1c bd ae 20 98 3c b2 f0 dc 3c cb 75 cb bd
       -0.03813052 0.01857027 0.026970241 -0.099345766
0000e0 ea 1a aa 3b b6 68 94 bd 86 af 5e 3c c6 84 0d bd
       0.0051911967 -0.072465345 0.013591653 -0.03455045
0000f0 c0 98 1d bd a6 9d 15 ba 86 79 3a 3c d0 fc 0d bd
       -0.038475752 -0.00057073904 0.0113815125 -0.03466493

sequential_46/dense_87/MatMul/ReadVariableOp/transpose f4 [1, 64]
000000 91 fe 93 be ac 57 39 3e e0 fb 79 3e ba c1 9a be
       -0.28905156 0.1809985 0.24412489 -0.30225927
000010 57 1a 3b 3d e5 94 65 3e 16 ea ac 3d de 90 bc 3e
       0.045679417 0.2242008 0.08443086 0.36829275
000020 ac 2d a8 3d 4a 9d a6 3d 9a 0d 00 3d cc 52 b1 3e
       0.08211836 0.08135469 0.03126297 0.34633482
000030 62 6b a8 3e 48 4b 4b 3e de 67 6c be 3f 71 b2 be
       0.32894427 0.19852936 -0.23086497 -0.34852025
000040 c3 18 67 be 14 87 30 3e 10 e5 6f 3e b5 fa d6 3d
       -0.2256804 0.17239028 0.23427224 0.10497037
000050 a5 ae b1 be 90 bb cb 3c cb 61 ac be 1e a8 00 3e
       -0.34703556 0.02486971 -0.3366836 0.12564132
000060 75 34 c2 be 0f 8d 90 bd 0b 44 3d be 9f 17 8f 3e
       -0.37930647 -0.07058155 -0.18482988 0.2794771
000070 1c 40 80 be 17 44 4a 3e 27 bf 81 be 75 9e 6f 3e
       -0.25048912 0.19752537 -0.2534115 0.2340029
000080 3c 54 a8 be 87 b2 3c be 04 fe 78 be 1f 63 14 be
       -0.32876766 -0.18427478 -0.2431565 -0.14490937
000090 4b a3 74 be 6e b6 17 3d 79 7e ea 3d e1 4e 0b be
       -0.23890416 0.037039213 0.11449904 -0.13604309
0000a0 28 a5 dc 3d 19 eb 4f 3d 1b dc 63 3e 04 50 d4 3e
       0.107736886 0.050761316 0.22251932 0.41467297
0000b0 ba 17 8a be 5b d4 e7 bd c0 ef 5e 3e 40 6c 27 3e
       -0.26971227 -0.113198005 0.21771145 0.16349888
0000c0 94 a5 1c 3e 6d a3 57 be 16 00 af be 01 94 89 3c
       0.15297538 -0.21058436 -0.34179753 0.016794207
0000d0 89 89 a3 be 19 e2 b6 be a9 af d9 3d 0e 7e 7a 3d
       -0.31940868 -0.35719374 0.10629208 0.06115537
0000e0 58 a2 2b be 37 86 21 3e 53 da 54 be 1f 1d 36 3d
       -0.16761148 0.15773855 -0.20786409 0.044461366
0000f0 a9 18 7c 3d 96 e0 46 be c0 44 b2 3e 54 8b 83 3d
       0.061546955 -0.1942161 0.34818077 0.06423059
